…
dir=/content/FYP/runs/detect/custom_yolo11n2\n","Downloading https://ultralytics.com/assets/Arial.ttf to '/root/.config/Ultralytics/Arial.ttf'...\n"]},{"output_type":"stream","name":"stderr","text":["100%|â–ˆâ–ˆâ–ˆâ–ˆâ–ˆâ–ˆâ–ˆâ–ˆâ–ˆâ–ˆ| 755k/755k [00:00<00:00, 119MB/s]\n"]},{"output_type":"stream","name":"stdout","text":["Overriding model.yaml nc=80 with nc=2\n","WARNING âš ï¸ no model scale passed. Assuming scale='n'.\n","\n","                   from  n    params  module                                       arguments                     \n","  0                  -1  1       344  ultralytics.nn.modules.LDConv.LDConv         [3, 16, 3, 2]                 \n","  1                  -1  1      2470  ultralytics.nn.modules.LDConv.LDConv         [16, 32, 3, 2]                \n","  2                  -1  1      6640  ultralytics.nn.modules.block.C3k2            [32, 64, 1, False, 0.25]      \n","  3                  -1  1     15878  ultralytics.nn.modules.LDConv.LDConv         [64, 64, 3, 2]                \n","  4                  -1  1     26080  ultralytics.nn.modules.block.C3k2            [64, 128, 1, False, 0.25]     \n","  5                  -1  1     56326  ultralytics.nn.modules.LDConv.LDConv         [128, 128, 3, 2]              \n","  6                  -1  1     87040  ultralytics.nn.modules.block.C3k2            [128, 128, 1, True]           \n","  7                  -1  1    105734  ultralytics.nn.modules.LDConv.LDConv         [128, 256, 3, 2]              \n","  8                  -1  1    346112  ultralytics.nn.modules.block.C3k2            [256, 256, 1, True]           \n","  9                  -1  1    164608  ultralytics.nn.modules.block.SPPF            [256, 256, 5]                 \n"," 10                  -1  1    249728  ultralytics.nn.modules.block.C2PSA           [256, 256, 1]                 \n"," 11                  -1  1         0  torch.nn.modules.upsampling.Upsample         [None, 2, 'nearest']          \n"," 12             [-1, 6]  1         0  ultralytics.nn.modules.conv.Concat           [1]                           \n"," 13                  -1  1    111296  ultralytics.nn.modules.block.C3k2            [384, 128, 1, False]          \n"," 14                  -1  1         0  torch.nn.modules.upsampling.Upsample         [None, 2, 'nearest']          \n"," 15             [-1, 4]  1         0  ultralytics.nn.modules.conv.Concat           [1]                           \n"," 16                  -1  1     32096  ultralytics.nn.modules.block.C3k2            [256, 64, 1, False]           \n"," 17                  -1  1     15878  ultralytics.nn.modules.LDConv.LDConv         [64, 64, 3, 2]                \n"," 18            [-1, 13]  1         0  ultralytics.nn.modules.conv.Concat           [1]                           \n"," 19                  -1  1     86720  ultralytics.nn.modules.block.C3k2            [192, 128, 1, False]          \n"," 20                  -1  1     56326  ultralytics.nn.modules.LDConv.LDConv         [128, 128, 3, 2]              \n"," 21            [-1, 10]  1         0  ultralytics.nn.modules.conv.Concat           [1]                           \n"," 22                  -1  1    378880  ultralytics.nn.modules.block.C3k2            [384, 256, 1, True]           \n"," 23        [16, 19, 22]  1    431062  ultralytics.nn.modules.head.Detect           [2, [64, 128, 256]]           \n","YOLO11_LDConv summary: 195 layers, 2,173,218 parameters, 2,173,202 gradients\n","\n","Transferred 462/513 items from pretrained weights\n","\u001b[34m\u001b[1mTensorBoard: \u001b[0mStart with 'tensorboard --logdir /content/FYP/runs/detect/custom_yolo11n2', view at http://localhost:6006/\n","Freezing layer 'model.23.dfl.conv.weight'\n","\u001b[34m\u001b[1mAMP: \u00
…
_dir=/content/FYP/runs/detect/custom_yolo11n\n","Downloading https://ultralytics.com/assets/Arial.ttf to '/root/.config/Ultralytics/Arial.ttf'...\n"]},{"output_type":"stream","name":"stderr","text":["100%|â–ˆâ–ˆâ–ˆâ–ˆâ–ˆâ–ˆâ–ˆâ–ˆâ–ˆâ–ˆ| 755k/755k [00:00<00:00, 104MB/s]\n"]},{"output_type":"stream","name":"stdout","text":["Overriding model.yaml nc=80 with nc=3\n","WARNING âš ï¸ no model scale passed. Assuming scale='n'.\n","\n","                   from  n    params  module                                       arguments                     \n","  0                  -1  1       448  ultralytics.nn.modules.conv.GSConv           [3, 16, 3, 2]                 \n","  1                  -1  1      2768  ultralytics.nn.modules.conv.GSConv           [16, 32, 3, 2]                \n","  2                  -1  1      6640  ultralytics.nn.modules.block.C3k2            [32, 64, 1, False, 0.25]      \n","  3                  -1  1     19360  ultralytics.nn.modules.conv.GSConv           [64, 64, 3, 2]                \n","  4                  -1  1     26080  ultralytics.nn.modules.block.C3k2            [64, 128, 1, False, 0.25]     \n","  5                  -1  1     75584  ultralytics.nn.modules.conv.GSConv           [128, 128, 3, 2]              \n","  6                  -1  1     87040  ultralytics.nn.modules.block.C3k2            [128, 128, 1, True]           \n","  7                  -1  1    151168  ultralytics.nn.modules.conv.GSConv           [128, 256, 3, 2]              \n","  8                  -1  1    346112  ultralytics.nn.modules.block.C3k2            [256, 256, 1, True]           \n","  9                  -1  1    164608  ultralytics.nn.modules.block.SPPF            [256, 256, 5]                 \n"," 10                  -1  1    249728  ultralytics.nn.modules.block.C2PSA           [256, 256, 1]                 \n"," 11                  -1  1         0  torch.nn.modules.upsampling.Upsample         [None, 2, 'nearest']          \n"," 12             [-1, 6]  1         0  ultralytics.nn.modules.conv.Concat           [1]                           \n"," 13                  -1  1    111296  ultralytics.nn.modules.block.C3k2            [384, 128, 1, False]          \n"," 14                  -1  1         0  torch.nn.modules.upsampling.Upsample         [None, 2, 'nearest']          \n"," 15             [-1, 4]  1         0  ultralytics.nn.modules.conv.Concat           [1]                           \n"," 16                  -1  1     32096  ultralytics.nn.modules.block.C3k2            [256, 64, 1, False]           \n"," 17                  -1  1     19360  ultralytics.nn.modules.conv.GSConv           [64, 64, 3, 2]                \n"," 18            [-1, 13]  1         0  ultralytics.nn.modules.conv.Concat           [1]                           \n"," 19                  -1  1     86720  ultralytics.nn.modules.block.C3k2            [192, 128, 1, False]          \n"," 20                  -1  1     75584  ultralytics.nn.modules.conv.GSConv           [128, 128, 3, 2]              \n"," 21            [-1, 10]  1         0  ultralytics.nn.modules.conv.Concat           [1]                           \n"," 22                  -1  1    378880  ultralytics.nn.modules.block.C3k2            [384, 256, 1, True]           \n"," 23        [16, 19, 22]  1    431257  ultralytics.nn.modules.head.Detect           [3, [64, 128, 256]]           \n","YOLO11_GSConv summary: 195 layers, 2,264,729 parameters, 2,264,713 gradients, 5.7 GFLOPs\n","\n","Transferred 490/541 items from pretrained weights\n","\u001b[34m\u001b[1mTensorBoard: \u001b[0mStart with 'tensorboard --logdir /content/FYP/runs/detect/custom_yolo11n', view at http://localhost:6006/\n","Freezing layer 'model.23.dfl.conv.weight'\n","\u001b[34m\u001b[
…
